…
The sparsity of the dataset: 95.53358229599758%
Remain Fields: ['entity_id', 'user_id', 'item_id', 'rating', 'timestamp', 'head_id', 'relation_id', 'tail_id']
The number of entities: 79399
The number of relations: 51
The number of triples: 385923
The number of items that have been linked to KG: 3655
27 May 01:28    INFO  [Training]: train_batch_size = [1024] negative sampling: [{'uniform': 1}]
27 May 01:28    INFO  [Evaluation]: eval_batch_size = [2048] eval_args: [{'group_by': 'user', 'order': 'RO', 'split': {'RS': [90, 5, 5]}, 'mode': 'full'}]
27 May 01:28    INFO  MKR(
  (user_embeddings_lookup): Embedding(6041, 64)
  (item_embeddings_lookup): Embedding(79399, 64)
  (entity_embeddings_lookup): Embedding(79399, 64)
  (relation_embeddings_lookup): Embedding(51, 64)
  (user_mlp): MLPLayers(
    (mlp_layers): Sequential(
      (0): Dropout(p=0.0, inplace=False)
      (1): Linear(in_features=64, out_features=64, bias=True)
      (2): Sigmoid()
    )
  )
  (tail_mlp): MLPLayers(
    (mlp_layers): Sequential(
      (0): Dropout(p=0.0, inplace=False)
      (1): Linear(in_features=64, out_features=64, bias=True)
      (2): Sigmoid()
    )
  )
  (cc_unit): Sequential(
    (cc_unit0): CrossCompressUnit(
      (fc_vv): Linear(in_features=64, out_features=1, bias=True)
      (fc_ev): Linear(in_features=64, out_features=1, bias=True)
      (fc_ve): Linear(in_features=64, out_features=1, bias=True)
      (fc_ee): Linear(in_features=64, out_features=1, bias=True)
    )
  )
  (kge_mlp): MLPLayers(
    (mlp_layers): Sequential()
  )
  (kge_pred_mlp): MLPLayers(
    (mlp_layers): Sequential(
      (0): Dropout(p=0.0, inplace=False)
      (1): Linear(in_features=128, out_features=64, bias=True)
      (2): Sigmoid()
    )
  )
  (sigmoid_BCE): BCEWithLogitsLoss()
)
Trainable parameters: 10569796
27 May 01:28    INFO  Train RS
Train     0: 100%|██████████████████████████████████████████████| 1769/1769 [02:05<00:00, 14.09it/s]
27 May 01:30    INFO  Train KG
Train     0: 100%|████████████████████████████████████████████████| 377/377 [00:27<00:00, 13.61it/s]
…
