…
The sparsity of the dataset: 95.53358229599758%
Remain Fields: ['entity_id', 'user_id', 'item_id', 'rating', 'timestamp', 'head_id', 'relation_id', 'tail_id']
The number of entities: 396916
The number of relations: 51
The number of triples: 2144652
The number of items that have been linked to KG: 3655
27 May 17:18    INFO  [Training]: train_batch_size = [1024] negative sampling: [{'uniform': 1}]
27 May 17:18    INFO  [Evaluation]: eval_batch_size = [2048] eval_args: [{'group_by': 'user', 'order': 'RO', 'split': {'RS': [0.8, 0.1, 0.1]}, 'mode': 'full'}]
27 May 17:18    INFO  MKR(
  (user_embeddings_lookup): Embedding(6041, 32)
  (item_embeddings_lookup): Embedding(396916, 32)
  (entity_embeddings_lookup): Embedding(396916, 32)
  (relation_embeddings_lookup): Embedding(51, 32)
  (user_mlp): MLPLayers(
    (mlp_layers): Sequential(
      (0): Dropout(p=0.0, inplace=False)
      (1): Linear(in_features=32, out_features=32, bias=True)
      (2): Sigmoid()
    )
  )
  (tail_mlp): MLPLayers(
    (mlp_layers): Sequential(
      (0): Dropout(p=0.0, inplace=False)
      (1): Linear(in_features=32, out_features=32, bias=True)
      (2): Sigmoid()
    )
  )
  (cc_unit): Sequential(
    (cc_unit0): CrossCompressUnit(
      (fc_vv): Linear(in_features=32, out_features=1, bias=True)
      (fc_ev): Linear(in_features=32, out_features=1, bias=True)
      (fc_ve): Linear(in_features=32, out_features=1, bias=True)
      (fc_ee): Linear(in_features=32, out_features=1, bias=True)
    )
  )
  (kge_mlp): MLPLayers(
    (mlp_layers): Sequential()
  )
  (kge_pred_mlp): MLPLayers(
    (mlp_layers): Sequential(
      (0): Dropout(p=0.0, inplace=False)
      (1): Linear(in_features=64, out_features=32, bias=True)
      (2): Sigmoid()
    )
  )
  (sigmoid_BCE): BCEWithLogitsLoss()
)
Trainable parameters: 25601892
27 May 17:18    INFO  Train RS
Train     0: 100%|██████████████████████████████████████████████| 1574/1574 [04:24<00:00,  5.94it/s]
27 May 17:23    INFO  Train KG
Train     0: 100%|██████████████████████████████████████████████| 2095/2095 [05:46<00:00,  6.05it/s]
…
